vae_fire_evac1.pth (torch, 51768 bytes, 14 tensors)

encoder.Linear1.weight f4 [64, 2]
0	0xbfaff462	-1.3746455
1	0x3f96895c	1.1760669
2	0xbfadfe65	-1.359326
3	0xbeda651c	-0.42655265
4	0xbd04314c	-0.032273576
5	0x3d2a8752	0.041632958
6	0x405d7de0	3.4608078
7	0x3f750080	0.9570389
8	0x3f2f291b	0.68422097
9	0x3e997a89	0.299763
10	0x3e1e1bf1	0.15440346
11	0xbda272fe	-0.07932089
12	0x3ede22e4	0.43385994
13	0x400e9797	2.2280023
14	0xbd160014	-0.03662117
15	0x3f7aa6b1	0.979106
16	0x3dabd9e8	0.08391172
17	0x3bc55dc5	0.006023141
18	0xbe34bd78	-0.17650402
19	0x3deec09e	0.116578326
20	0x3d3f9f47	0.046782758
21	0xbcd8d0c3	-0.026466733
22	0x3f4f1285	0.80887634
23	0xbecc300f	-0.39880416
24	0x401c23c9	2.4396842
25	0xbf007e6a	-0.5019289
26	0xbeacfe80	-0.33787918
27	0x3f4ca72c	0.79942584
28	0x3cb6f959	0.022335695
29	0xbbe22e0f	-0.0069024633
30	0xbe2308a5	-0.15921266
31	0x3f303119	0.6882492
32	0x3e53c2a5	0.2067972
33	0xbd53fa85	-0.051752586
34	0x3f45a56e	0.7720555
35	0x401868f5	2.381406
36	0x3f145620	0.57943916
37	0x3dac4273	0.08411112
38	0xbe211579	-0.15730847
39	0xbda2c26c	-0.07947239
40	0x3f0d5434	0.5520661
41	0xbf0cbc84	-0.5497515
42	0xbf493411	-0.7859507
43	0x4008c2b9	2.136885
44	0xbcf66ba6	-0.030080628
45	0xbf190762	-0.5977689
46	0xbd783344	-0.060595766
47	0x3da3907f	0.07986545
48	0xbe3c5ed8	-0.18395555
49	0xbb0c0d45	-0.0021370214
50	0x4003d6ee	2.0599933
51	0xbe92bf7d	-0.2866172
52	0x3e20cb52	0.1570256
53	0xbd4b1b12	-0.049586363
54	0x3ec45631	0.3834701
55	0xbdf5bd2b	-0.119989716
56	0x3bfe62a7	0.007763225
57	0x3d8198a9	0.06327946
58	0x3feab2c6	1.8335807
59	0xbf580e8f	-0.84397215
60	0xbe36893f	-0.17825793
61	0x3d8b45b2	0.06800403
62	0x3da299f7	0.07939523
63	0xbdd93ef7	-0.10607713
64	0x3e77c2e7	0.24195443
65	0x3eaa8c98	0.3331039
66	0x3ef16c5e	0.4715299
67	0xbcbc3438	-0.022974119
68	0xbea18c8c	-0.3155254
69	0xbf92eeed	-1.1479164
70	0x3ea91fc1	0.3303204
71	0xbf31ce99	-0.6945587
72	0x3ddec4d4	0.10877386
73	0xbb0f6945	-0.0021882814
74	0xbccaf970	-0.024777144
75	0xbe822e3a	-0.25425893
76	0xbebfeea7	-0.37486765
77	0x3f1d0257	0.61331695
78	0x3f23c555	0.6397298
79	0x3ea9c640	0.33159065
80	0x3dd5fee0	0.10449004
81	0xbf0377c5	-0.5135463
82	0x3da357bd	0.07975719
83	0x3d526644	0.05136706
84	0xbfff553e	-1.9947889
85	0xbf8bc649	-1.0919887
86	0xbdba7abd	-0.09105442
87	0x3e2f77dd	0.17135568
88	0x3ec7d053	0.39026126
89	0x3eb3822c	0.3506025
90	0x3fb7472c	1.4318595
91	0x3f836f16	1.0268276
92	0x3c550c1b	0.013003374
93	0xbd2c2d5c	-0.042035446
94	0xbe2f3c3d	-0.17112823
95	0x3e1dee74	0.15422994
96	0x3dc009f5	0.09376899
97	0x3d261330	0.040545642
98	0x3cae5363	0.021279996
99	0x3b3f0cbd	0.002915188
100	0xbe1f1aec	-0.15537614
101	0x3dafc13c	0.085817784
102	0x401b882c	2.4301863
103	0x3e9ff26f	0.3123965
104	0xbfb6c379	-1.4278404
105	0x3f70fd74	0.9413674
106	0xbe1df34e	-0.15424845
107	0x3efb5b04	0.49092877
108	0x403e0ffc	2.9697256
109	0x3f362097	0.7114348
110	0xbe14c626	-0.14528713
111	0x3fb0ed92	1.3822501
112	0x3f28b705	0.65904266
113	0xc045b8ae	-3.089397
114	0x3e0f6968	0.14005053
115	0xbb979bd0	-0.0046267286
116	0x3d8ed434	0.06974068
117	0xbc84a858	-0.016193554
118	0x3df24005	0.11828617
119	0x3d3679be	0.044549696
120	0x3fe1b3c3	1.7632984
121	0x3ee35b16	0.4440543
122	0x3ebdc391	0.37063268
123	0xbfcd9a82	-1.6062777
124	0x3e03c153	0.12866716
125	0xbd5d366e	-0.054006986
126	0xbde86f41	-0.11349345
127	0x3e149c1d	0.14512677

encoder.Linear1.bias f4 [64]
0	0x3e971791	0.29510167
1	0xbf2dea34	-0.6793549
2	0xbd239a62	-0.039942153
3	0x3ea4bbb3	0.32174453
4	0x3e06e01b	0.13171427
5	0xbe0064d9	-0.1253847
6	0xbf07a211	-0.5298167
7	0xbd80a357	-0.062811546
8	0xbd21d2b4	-0.039507583
9	0xbe39a310	-0.1812861
10	0xbd1a063c	-0.0376036
11	0x3dcd7251	0.1003157
12	0xbf055ceb	-0.52094907
13	0x3d0aae76	0.033857785
14	0xbc4d930b	-0.012547265
15	0xbeba5ee4	-0.3640052
16	0xbdd5d1fc	-0.10440442
17	0xbf979b8f	-1.1844348
18	0xbf2f25d0	-0.6841707
19	0xbe5b5724	-0.2141996
20	0xbf2fb2b2	-0.6863204
21	0xbf7b8b4c	-0.98259425
22	0xbf272351	-0.65288264
23	0xbd942f17	-0.07235544
24	0xbe3dc1b0	-0.18530917
25	0x3e62b762	0.22140267
26	0xbdb36a67	-0.08760529
27	0xbe599180	-0.2124691
28	0xbd0c520c	-0.034257933
29	0xbea2e3f5	-0.31814542
30	0xbe2af700	-0.16695786
31	0xbe0708c9	-0.13186945
32	0xbf1366ee	-0.57578933
33	0xbe49b961	-0.19699623
34	0xbef7ed3b	-0.4842318
35	0x3e39b0db	0.18133871
36	0xbd3e4f6e	-0.04646247
37	0xbe935da9	-0.28782395
38	0xbf2d8a8c	-0.6778953
39	0xbee8d66a	-0.45476085
40	0xbf1db05c	-0.6159723
41	0xbd70e273	-0.05880971
42	0xbf175b00	-0.5912323
43	0xbdfa5ee0	-0.12225127
44	0xbf06057c	-0.5235212
45	0x3d4d313d	0.050095785
46	0xbd3b41c1	-0.045717005
47	0xbe442b98	-0.19157255
48	0xbd74fc2a	-0.059810795
49	0xbc2efbf9	-0.010680192
50	0xbe1d87b2	-0.15383795
51	0xbe8d188d	-0.27557793
52	0xbf53d483	-0.8274614
53	0xbe9eecea	-0.31040126
54	0xbf2e5ce2	-0.6811048
55	0x3f34aff7	0.70581
56	0xbf8d3af6	-1.1033618
57	0xbd7544f8	-0.059880227
58	0xbd0b349f	-0.03398573
59	0xbd9588c0	-0.073014736
60	0x3f250a05	0.64468414
61	0xbe5884f2	-0.21144465
62	0xbdad5b10	-0.084646344
63	0xbe964d78	-0.2935598

encoder.Linear2.weight f4 [64, 64]
0	0xbdb36684	-0.08759788
1	0xbc02512b	-0.007953922
2	0xbe09085b	-0.13382094
3	0xbdda085c	-0.10646126
4	0xbd062346	-0.032748483
5	0xbe092f80	-0.13397026
6	0xbbfe6a14	-0.0077641103
7	0xbdafc096	-0.08581655
8	0xbe05aac9	-0.1305343
9	0x3cf53918	0.029934451
10	0xbdd71321	-0.105016954
11	0x3d400cb3	0.04688711
12	0xbdc8a648	-0.09797341
13	0x3de76253	0.11298051
14	0xbcc60153	-0.024170553
15	0xbd109560	-0.035298705
16	0x3b5a5af9	0.0033318384
17	0x3c82a47c	0.015947573
18	0xbda8bb6e	-0.082388744
19	0x3d96aded	0.073573925
20	0xbd854f6a	-0.06509288
21	0x3d8a0a23	0.06740215
22	0x3dc27e18	0.09496707
23	0xbc158ea9	-0.009128251
24	0x3d6aaa26	0.057291172
25	0xbd72aa3c	-0.05924438
26	0x3c751896	0.014959475
27	0xbe178ba5	-0.14799364
28	0x3cebd31a	0.028787185
29	0x3c771cd8	0.0150825605
30	0x3d99f4fb	0.075174294
31	0xbbc8dce4	-0.006129848
32	0x3b9ccd80	0.0047852397
33	0xbd4c5650	-0.049887
34	0x3d1bb964	0.0380186
35	0xbdc26deb	-0.094936214
36	0x3cbf87d4	0.023380198
37	0x3c95f313	0.018304383
38	0xbd871bc0	-0.0659709
39	0x3d397b84	0.04528381
40	0xbdca0ae4	-0.098653585
41	0xbdedd44b	-0.11612757
42	0xbb81c05d	-0.003959699
43	0xbcd5ccde	-0.026098665
44	0xbd87b30e	-0.06625949
45	0x3d856455	0.065132774
46	0xbe318120	-0.17334414
47	0xbe2e0cce	-0.16997072
48	0xbe2570dd	-0.16156335
49	0xbd7030bb	-0.058640223
50	0xbe25481d	-0.1614079
51	0xbc6dea2e	-0.014521165
52	0xbdafa2bc	-0.08575961
53	0xbd713640	-0.058889627
54	0x3baa3080	0.00519377
55	0xbe297e4a	-0.16552082
56	0xbd0b66af	-0.034033474
57	0x3c83c3ea	0.01608463
58	0x3d807dd3	0.06273999
59	0xbe08308f	-0.13299774
60	0xbded12e9	-0.115758725
61	0xbd980076	-0.07421963
62	0x3c7b2880	0.01532948
63	0xbd438094	-0.047730044
64	0xbd690880	-0.05689287
65	0x3d526fea	0.05137626
66	0xbda8e06e	-0.082459316
67	0x3d9be97c	0.07612893
68	0xbe20156c	-0.15633172
69	0xbc43eca0	-0.011958271
70	0x3ca3db8f	0.020002155
71	0xbcebce42	-0.028784875
72	0xbc8f27e0	-0.017475069
73	0xbdaad366	-0.08341102
74	0xbdb848ce	-0.089982614
75	0x3d12a23c	0.03579925
76	0x3d94b57d	0.07261179
77	0xbe366c36	-0.17814717
78	0xbdd32a4c	-0.10310802
79	0x3dd2a786	0.10285859
80	0xbb3370c0	-0.0027380437
81	0xbdfd6de3	-0.12374475
82	0x3d16c8c4	0.03681256
83	0x3d19d8d2	0.03756029
84	0xbda71b32	-0.08159484
85	0xbd1a4e1e	-0.037672155
86	0xbdcfddee	-0.101497516
87	0xbdd13a20	-0.102161646
88	0x3dfc8f5e	0.123320326
89	0xbdc0a0d8	-0.094056785
90	0x3af57a00	0.0018728375
91	0xbc2cb120	-0.010540277
92	0x3d451738	0.048117846
93	0xbdc0bb78	-0.09410757
94	0xbccfdb68	-0.025373176
95	0x3dc27352	0.09494652
96	0x3d9bb2be	0.07602452
97	0xbd4abcd8	-0.0494965
98	0xbd9d46e5	-0.07679538
99	0xbe0f6c18	-0.14006078
100	0xbc94f9a0	-0.018185437
101	0xbca08954	-0.019596733
102	0xbdfe980a	-0.12431343
103	0x3dec3712	0.11533941
104	0xbdebebc0	-0.11519575
105	0xbdc77688	-0.09739405
106	0x3d043ea0	0.032286286
107	0x3d0fb318	0.035082906
108	0x3c0c8a40	0.008577883
109	0x3cb3e48b	0.021959564
110	0x3d80fae4	0.062978536
111	0xbc855cee	-0.016279664
112	0xbc9b4a58	-0.018956348
113	0xbdcfe210	-0.1015054
114	0xbce1742f	-0.027521221
115	0x3c637d03	0.013884786
116	0xbd86f782	-0.06590177
117	0x398bf400	0.0002669394
118	0xbc91d75d	-0.017802889
119	0xbcba6133	-0.022751426
120	0xbd73b15c	-0.059495315
121	0xbdafc39e	-0.08582233
122	0xbdf53e58	-0.11974782
123	0xbd0c7860	-0.034294486
124	0xbc93c6e1	-0.018039169
125	0xbd815889	-0.06315715
126	0x3d2ee9a0	0.04270327
127	0x3de4bdf0	0.1116904
128	0xbf10bdec	-0.565398
129	0x3f45d9f6	0.77285707
130	0xbd30e83f	-0.043190237
131	0xc084f379	-4.154721
132	0xc1786be8	-15.526344
133	0x3e6bf8fb	0.23044197
134	0xbf964333	-1.1739258
135	0xbfca5e0e	-1.5809953
136	0x3ee1a229	0.4406903
137	0xbd91f75c	-0.07127258
138	0x3d416398	0.04721412
139	0xc0be3c25	-5.944842
140	0xbce8d44b	-0.028421542
141	0xc022f3d5	-2.5461323
142	0x3cac32bb	0.021020284
143	0x3db57240	0.08859682
144	0xc04a549b	-3.161414
145	0xc044a53d	-3.0725853
146	0xbccb71a8	-0.024834469
147	0x3eb1ca89	0.34724835
148	0xbde35c35	-0.111015715
149	0x3d190489	0.03735784
150	0xbdd732b8	-0.10507721
151	0x3df106d0	0.117688775
152	0xbd9aebaf	-0.07564484
153	0xc09c6f5c	-4.8885937
154	0x3e3f254c	0.18666571
155	0xc01eeee4	-2.4833307
156	0xbdd0b817	-0.10191362
157	0xbf9d2a47	-1.2278527
158	0xbe0df758	-0.13863885
159	0xbda4916a	-0.08035548
160	0x3d8c41d8	0.06848496
161	0x3db379a6	0.08763437
162	0xc0a58951	-5.1730123
163	0x3fb35e79	1.4013206
164	0x3f05eb1b	0.5231187
165	0xc100e54e	-8.055983
166	0xbd539938	-0.051659793
167	0x3d01d7e4	0.03170003
168	0x3d48f820	0.049064755
169	0xbf9db5fb	-1.2321161
170	0xc041273d	-3.01802
171	0xbdd9ebec	-0.10640702
172	0x3db6eae0	0.089315176
173	0xc07efa4e	-3.9840274
174	0xbd5656e5	-0.052328963
175	0xbe4394bf	-0.19099711
176	0x3def3196	0.1167938
177	0xbd3c2907	-0.045937564
178	0xbe59f00b	-0.21282975
179	0xbfaaa0b3	-1.3330292
180	0xc0227783	-2.5385444
181	0xbd4a3424	-0.04936613
182	0xbf27db7a	-0.6556927
183	0xbe040e54	-0.12896091
184	0xbe838799	-0.2568939
185	0xc04f8415	-3.2424366
186	0x3ea8797e	0.3290519
187	0x3e3f5149	0.18683352
188	0xc00cc184	-2.1993113
189	0xc1a569ee	-20.676723
190	0xbd12855e	-0.03577172
191	0x3c2a5b60	0.010397762
192	0xbd9cc09c	-0.07653925
193	0xbd22d086	-0.039749645
194	0xbdb5cf7a	-0.08877464
195	0xbdccb3d9	-0.09995241
196	0x3cbcf71a	0.023067046
197	0x3d81ddd6	0.0634114
198	0x3909c918	0.00013140251
199	0x3bd2c7e0	0.0064325184
200	0xbdd7bf51	-0.105345376
201	0xbc7744f9	-0.015092128
202	0x3b5baac5	0.0033518535
203	0x3c89ff5a	0.016845394
204	0x3d6c90b5	0.05775519
205	0xbda358c0	-0.07975912
206	0xbe04cbee	-0.12968418
207	0x3d24c554	0.04022725
208	0xbe1e267e	-0.15444371
209	0x3d3ae984	0.045632854
210	0x3a8da480	0.0010806471
211	0x3c0e55fd	0.008687493
212	0x3dab2610	0.08356869
213	0xbd61c99e	-0.055123918
214	0xbdb96396	-0.09052198
215	0xbd3b42ec	-0.04571812
216	0xbd0f0201	-0.03491402
217	0xbd8ba339	-0.068182416
218	0xbc87692a	-0.016529638
219	0xbe2d9071	-0.16949631
220	0xbc4b7bfa	-0.012419695
221	0x3d90eb95	0.07076184
222	0xbd737048	-0.05943325
223	0xbdc0412d	-0.09387431
224	0xbda38ba8	-0.07985622
225	0x3d01555b	0.031575542
226	0x3c90a6fd	0.017657751
227	0xbde8f60d	-0.113750555
228	0x3cdfe931	0.027332874
229	0xbc0ac946	-0.008470839
230	0x3daa4eda	0.08315821
231	0x3df2553a	0.11832662
232	0x3d8cdc86	0.06877999
233	0xbd54eadd	-0.051981796
234	0x3d61b43b	0.05510352
235	0xbc9b604a	-0.018966813
236	0x3deb0606	0.11475758
237	0x3d159cb1	0.036526386
238	0xbdf011fd	-0.11722181
239	0xbd32a942	-0.043618448
240	0x3d3ed1d2	0.04658682
241	0x3dbd5f55	0.09246699
242	0xbdd89c2d	-0.10576663
243	0x3d036d3c	0.032086596
244	0xbe138fb0	-0.14410281
245	0x3d209308	0.03920272
246	0xbc08b598	-0.008344077
247	0xbe306428	-0.17225707
248	0xbd6fda3d	-0.058557738
249	0xbcc88035	-0.024475196
250	0x3cedcce1	0.029028358
251	0x3bd99e93	0.006641218
252	0x3d43a044	0.047760263
253	0xbe1070ac	-0.14105481
254	0x3d87ff4b	0.0664049
255	0xbd1e1344	-0.038592592

encoder.Linear2.bias f4 [64]
0	0xbdd55339	-0.10416264
1	0xbe1940c4	-0.14966112
2	0x3fe23e98	1.7675352
3	0x3d23e3ba	0.0400121
4	0xbdb6e52d	-0.089304306
5	0xbd347b1f	-0.04406273
6	0xbee7b318	-0.45253825
7	0xbe0f2690	-0.13979554
8	0xbe0b1ba3	-0.13584761
9	0xbbd2cf93	-0.006433436
10	0xbfef6b6d	-1.8704659
11	0xbdb4dfdf	-0.088317625
12	0xbcc5eef3	-0.024161791
13	0xbe1877d4	-0.14889461
14	0xbe1a051e	-0.15041015
15	0xbe07bb3b	-0.13255017
16	0x3cffa55d	0.031206781
17	0xbd42c00d	-0.047546435
18	0xbdfedcb0	-0.124444366
19	0xbcd6da14	-0.026227035
20	0xbcf5c89e	-0.030002888
21	0x3e158d1a	0.14604607
22	0xbd009dc3	-0.031400453
23	0xbe22ce87	-0.15899096
24	0xbe17d430	-0.14827037
25	0xbe5e364e	-0.21700403
26	0x3d219f4d	0.03945856
27	0xbd8b63ad	-0.06806121
28	0x3edf4bbb	0.43612465
29	0xbd3fbdf0	-0.046811998
30	0xbdf85337	-0.12125247
31	0xbdc36722	-0.095411554
32	0x3cbd903f	0.023140071
33	0xbf65f06b	-0.89819974
34	0xbdc8b0bf	-0.09799337
35	0xbdf1de56	-0.11809985
36	0xbec11883	-0.37714013
37	0xbd24947f	-0.04018068
38	0xbe035d3d	-0.12828536
39	0xbe099455	-0.1343549
40	0xbd98622c	-0.074406
41	0x3b8d2335	0.0043071755
42	0x3e88ac57	0.26693985
43	0xbd0c5d13	-0.03426845
44	0xbea82c21	-0.32846168
45	0xbdace5ed	-0.08442292
46	0xbdb0b329	-0.08627922
47	0xbddd5389	-0.10806949
48	0x3ea36a3f	0.31916997
49	0xbc862840	-0.016376615
50	0x3f28dd8a	0.6596304
51	0xbcd9c13d	-0.026581401
52	0xbc90f8a7	-0.017696692
53	0xbdf4b09a	-0.119477466
54	0xbdc6f332	-0.097143546
55	0xbe15f177	-0.14642893
56	0xbdfd3cc8	-0.12365109
57	0xbdc6acff	-0.09700965
58	0x3ef903a8	0.48635602
59	0xbe1d3f2a	-0.15356126
60	0x3f5b1e3b	0.85593003
61	0xbcd258cc	-0.025677107
62	0x3cf882de	0.03033584
63	0xc023e1a6	-2.5606475

encoder.linear_mu.weight f4 [16, 64]
0	0xbc257943	-0.010099712
1	0x3cd88f38	0.02643548
2	0xbb10a05e	-0.0022068243
3	0xbdec508e	-0.11538802
4	0x3cd178e5	0.025570342
5	0xbd0e9f44	-0.034819856
6	0x3b331edd	0.0027331628
7	0x3dd069a0	0.10176396
8	0x3d8c9412	0.0686418
9	0x3af32eaf	0.0018553342
10	0x3b621445	0.0034496945
11	0xbdd75595	-0.1051437
12	0xbd1b04ca	-0.037846364
13	0x3cb37b16	0.021909278
14	0x3daa9b64	0.0833042
15	0xbdeb6d7c	-0.11495492
16	0xbe29e93d	-0.1659288
17	0x3c9255de	0.01786321
18	0xb9bcf149	-0.00036037926
19	0x3d775193	0.06038053
20	0xbd97e743	-0.074171565
21	0xba83d5ae	-0.0010058188
22	0x3c1cf8b9	0.0095807845
23	0xbd97da24	-0.07414654
24	0x3dafbb91	0.08580697
25	0xbd90fe4a	-0.07079752
26	0x3d19d45b	0.037556034
27	0x3c207d38	0.0097954795
28	0x3a986659	0.0011627182
29	0xbe094234	-0.1340416
30	0xbdef8e7f	-0.11697101
31	0xbbf991c7	-0.007616255
32	0xbb87ad02	-0.004140497
33	0x3bc03d58	0.0058666877
34	0xbdb5bb3c	-0.08873603
35	0x3dbde340	0.0927186
36	0x3bcad7c1	0.0061902707
37	0xbe28fea2	-0.16503385
38	0xbe2351b5	-0.15949138
39	0xba7aad99	-0.0009562611
40	0xbe14c087	-0.14526568
41	0x3cc746b7	0.024325712
42	0xbabbbacc	-0.0014322638
43	0x3d1827a3	0.037147176
44	0xbb304fab	-0.0026902955
45	0xbc28899b	-0.010286714
46	0xbdd7e521	-0.1054175
47	0x3da1ed80	0.07906628
48	0xbb9193f6	-0.004442687
49	0x3c968683	0.018374687
50	0xbaf67966	-0.001880449
51	0x3da8575d	0.08219788
52	0xbd7ab72c	-0.061209843
53	0xbd402165	-0.046906848
54	0xbd95e180	-0.07318401
55	0x3b90dbde	0.0044207415
56	0x3c90e9fe	0.017689701
57	0x3cf06783	0.029346233
58	0x39ea1984	0.0004465097
59	0xbbf3d1c6	-0.0074407784
60	0xbb877b7f	-0.004134595
61	0xbdd0b74e	-0.101912126
62	0xbdf31167	-0.118685536
63	0x39676519	0.00022067539
64	0xbbed85b2	-0.0072486037
65	0xbce55885	-0.027996311
66	0xbb0fbd1e	-0.002193279
67	0x3d255851	0.04036743
68	0x3d6af811	0.05736548
69	0x3b0e9bba	0.00217603
70	0xba8006c9	-0.0009767647
71	0x3bbaf686	0.0057056574
72	0x3d7f0ee1	0.06227005
73	0x3d133916	0.035943113
74	0x3aac9475	0.0013166802
75	0x3da18713	0.078870915
76	0x3d764d4e	0.060132317
77	0xbd704847	-0.05866268
78	0xbd8bb8fb	-0.068223916
79	0x3dfb731d	0.122778155
80	0x3d8afb46	0.06786208
81	0x3dda2a70	0.106526256
82	0xbdc8650c	-0.09784898
83	0xbe264a77	-0.16239344
84	0xbc2d0f2f	-0.010562702
85	0xbb08112b	-0.0020762186
86	0x3d3a0586	0.045415424
87	0x3d020e4b	0.031751912
88	0x3dba1264	0.09085539
89	0x3ce5b648	0.02804102
90	0x3c5e9714	0.0135858245
91	0x3dea9f03	0.1145611
92	0x398883a6	0.00026038027
93	0x3cc24e42	0.023718957
94	0xbd1197c6	-0.035545133
95	0x3d8bfd3a	0.068354085
96	0x3d0c1c98	0.034206957
97	0x3b37ec04	0.002806426
98	0xbe28d9e6	-0.16489372
99	0xbd34185f	-0.043968555
100	0xba9aa14a	-0.0011797335
101	0xbd0aa40d	-0.033847857
102	0x3dd6c3b8	0.10486549
103	0x3d75e0cb	0.060028832
104	0xbd93af8f	-0.072112195
105	0xba963fb7	-0.001146308
106	0xbb8d70f3	-0.004316443
107	0x3dce1956	0.10063426
108	0xb64ff938	-3.0990468e-06
109	0xbc26bd72	-0.010177003
110	0xbd9890cc	-0.07449493
111	0x3d9c5096	0.07632558
112	0xbc2d8ec7	-0.010593123
113	0xbce1b67c	-0.027552836
114	0x3a0ef2ce	0.0005453051
115	0xbde56fc6	-0.1120296
116	0x3d3ea3aa	0.0465428
117	0xbc9e9ae4	-0.019360967
118	0xbd7abb91	-0.061214034
119	0xbbcb1134	-0.006197119
120	0x3bf334ca	0.0074220644
121	0xbc935ef8	-0.01798962
122	0x3aa51cc3	0.0012597073
123	0x3d01145e	0.031513564
124	0xba8cab6b	-0.0010732239
125	0xbd4c28b4	-0.049843505
126	0xbbb6da6f	-0.0055802385
127	0xbaeca670	-0.0018054973
128	0x3d9a48c5	0.07533411
129	0xbcb8c5cd	-0.022555256
130	0xbdfcccb6	-0.12343733
131	0x3a227682	0.00061974686
132	0x3d48c6bf	0.049017664
133	0xbcd8e7c8	-0.02647771
134	0x3ed6a8d1	0.41925672
135	0x3dcb7788	0.09934908
136	0xbe02997c	-0.12753862
137	0x3b387988	0.002814861
138	0xbe84be5e	-0.2592649
139	0xbcb4d2b3	-0.022073125
140	0x3d018ed3	0.03163035
141	0xbd0ba327	-0.03409114
142	0x3d86c51c	0.065805644
143	0x3d477927	0.048699524
144	0x3e0854d3	0.13313608
145	0x3c2f7307	0.010708577
146	0x3a9e4156	0.0012073915
147	0xbb4f11e6	-0.0031596362
148	0xbd9d7eda	-0.07690211
149	0xbea1b9af	-0.31586978
150	0x3d36e09a	0.04464779
151	0x3d3e533a	0.04646609
152	0x3c03fe2b	0.008056204
153	0x3d5b9bdb	0.053615432
154	0xbb090c78	-0.0020911973
155	0x3d654ec6	0.055983327
156	0x3cd5b8f9	0.026089178
157	0x3d9cad80	0.0765028
158	0xbd845a3d	-0.06462524
159	0x3de484d5	0.11158148
160	0xbdca22ce	-0.0986992
161	0xbe0d72ff	-0.13813399
162	0xbd53041f	-0.051517602
163	0x3c272505	0.010201697
164	0xbdcf485d	-0.10121224
165	0x3c7dbd0b	0.015486966
166	0x3dc3c7b3	0.09559574
167	0x3c25466b	0.01008759
168	0x3c849f3f	0.016189216
169	0x3cdaf43e	0.026727792
170	0xbd9a9c11	-0.075492986
171	0xbe12271a	-0.14272729
172	0x3fe578d6	1.7927501
173	0xbd49ae63	-0.049238574
174	0xbd210c2b	-0.039318245
175	0x3c90b48f	0.017664222
176	0x3f6d949b	0.9280488
177	0xbc3a27ac	-0.011361998
178	0x3e9381d0	0.28809977
179	0xbc00383f	-0.00782591
180	0xbb851c77	-0.004062231
181	0x3b61881a	0.0034413398
182	0xbd0bffb5	-0.034179408
183	0x3be7eb54	0.007077614
184	0x3d6eb605	0.058279056
185	0x3daae444	0.083443195
186	0xbf7d4f42	-0.9894906
187	0xbd51c09d	-0.05120908
188	0x3f3ca6d3	0.73692054
189	0x3c6872e0	0.014187545
190	0xbcfae02c	-0.030624472
191	0x3d6ab327	0.05729976
192	0x3e1f3baf	0.15550111
193	0x3dafc29b	0.0858204
194	0xbb2a4d4f	-0.002598602
195	0xbb1a90eb	-0.0023584913
196	0x3d7810d1	0.060562912
197	0xbd70b010	-0.058761656
198	0xbb2f1b17	-0.0026719028
199	0xbda0b7ec	-0.0784758
200	0x3d093267	0.033495333
201	0xbd3ad072	-0.045608945
202	0x3af07110	0.0018344242
203	0xbdd11623	-0.102093
204	0x3e5945bf	0.21218012
205	0x3da8ede5	0.082485
206	0x3ba68515	0.0050817826
207	0x3c50762d	0.012723488
208	0x3d916fca	0.071014
209	0x3cf29e5e	0.029616531
210	0xbb6d788d	-0.0036235184
211	0x3da308d1	0.07960666
212	0x3e29e3b0	0.16590762
213	0xb9001dfd	-0.00012218203
214	0xbd7b30ed	-0.061325956
215	0x3c46b58d	0.012128246
216	0x3d475778	0.0486674
217	0x3d4d53af	0.050128635
218	0x3cb19d64	0.021681495
219	0x3d97d959	0.07414503
220	0x3b374304	0.0027963528
221	0x3da2e141	0.0795312
222	0xbbb82e9e	-0.0056207916
223	0x3c8056a3	0.015666312
224	0x3d0e2143	0.03469969
225	0x3a71a585	0.0009218085
226	0xbdd67ed5	-0.1047341
227	0x3d0bc87c	0.034126744
228	0xb930805a	-0.00016832483
229	0xbcf3e5b3	-0.029772615
230	0xbd557504	-0.052113548
231	0x3d30b44b	0.04314069
232	0x3d9e5f8c	0.07733068
233	0x3cefdd44	0.029280312
234	0xbb5bc810	-0.0033535995
235	0xbe0dbdfb	-0.13842003
236	0xbb349b9c	-0.002755857
237	0xbdbe2c70	-0.092858195
238	0xbcf5abd8	-0.029989168
239	0x3cf46a22	0.029835764
240	0xbc21580b	-0.009847651
241	0x3d3c4888	0.04596761
242	0xbaaed0f2	-0.0013337417
243	0x3d51dce6	0.051236056
244	0xbd03248d	-0.03201728
245	0x3d3e52e4	0.04646577
246	0xbde7b870	-0.113144755
247	0xbd2fa09a	-0.04287777
248	0x3dd44003	0.10363772
249	0xbce071f0	-0.02739808
250	0x38b07f48	8.416042e-05
251	0xbd1f74be	-0.038929693
252	0xbb1ec98e	-0.0024229023
253	0x3d92912f	0.07156598
254	0x3d5665f8	0.05234334
255	0x3979d68c	0.00023826415

encoder.linear_mu.bias f4 [16]
0	0x3ba80ca3	0.0051284595
1	0x3b5c58bc	0.0033622226
2	0xbe3eab1b	-0.18619959
3	0x3bad0a86	0.0052807955
4	0x3b667f36	0.0035171038
5	0x3ee20c72	0.4415012
6	0x3baafae3	0.0052178963
7	0xbb9c27c8	-0.0047654845
8	0xbb051b05	-0.0020310294
9	0xbb080052	-0.0020752144
10	0xba235d88	-0.0006231894
11	0x3c0438ab	0.008070151
12	0x3a8c8857	0.0010721785
13	0x3b22a5b0	0.0024817996
14	0xba1cb3be	-0.00059777114
15	0xb930521d	-0.00016815258

encoder.linear_sigma.weight f4 [16, 64]
0	0x3c4f8067	0.012664891
1	0x3ddff63d	0.10935638
2	0xbaf47615	-0.0018650914
3	0xbde92558	-0.11384076
4	0x3b89a266	0.0042002676
5	0xbe07c9d6	-0.13260588
6	0x39f3e8d9	0.00046522057
7	0x3dd3918a	0.10330494
8	0x3d045bea	0.03231422
9	0xbd4aad63	-0.04948176
10	0xba47192b	-0.0007594998
11	0xbd5cee6e	-0.05393832
12	0x3d70e74c	0.058814332
13	0x3de6726d	0.11252294
14	0x3df55f4a	0.119810656
15	0xbd453fef	-0.048156675
16	0xbd11ab5d	-0.035563815
17	0x3d29e3c5	0.041476984
18	0xbd7ce448	-0.061741143
19	0x3d050f2a	0.032485165
20	0xbdfab584	-0.122416526
21	0xb9809f63	-0.00024532815
22	0xbb981ba7	-0.0046419683
23	0xbb7725c6	-0.0037711724
24	0x3da9b2b2	0.082860366
25	0x3d9dcc5c	0.07704994
26	0x3b279632	0.00255717
27	0x3de780e0	0.11303878
28	0x38ebf767	0.000112517555
29	0x3d539005	0.05165102
30	0x3e358f18	0.17730367
31	0xbddecf4a	-0.10879381
32	0xbd3bd4bf	-0.045857187
33	0xb931ab8b	-0.0001694394
34	0x3d9045d6	0.0704457
35	0xbcc4d0c0	-0.024025321
36	0x3aa5a942	0.0012638944
37	0xbcc99f7b	-0.024612179
38	0x3da502b9	0.0805716
39	0x3cae6065	0.021286199
40	0xbdffe001	-0.12493897
41	0xbcb7b1eb	-0.022423705
42	0x3a8a27b5	0.0010540398
43	0xbdcf1eac	-0.10113272
44	0x38ddb4a5	0.00010571749
45	0x3d6fe81f	0.058570977
46	0x3dba75ab	0.09104475
47	0x3cc4fbb3	0.0240458
48	0x3a98c061	0.0011654013
49	0xbd9b1553	-0.07572427
50	0x3a5d60cd	0.00084449054
51	0xbe1f18a4	-0.15536743
52	0x3de7b2f6	0.11313431
53	0xbcee1b54	-0.029065765
54	0xbc0c301d	-0.008556393
55	0xbbac5828	-0.0052595325
56	0x3de6ef5f	0.11276125
57	0xbc22b5b9	-0.009931021
58	0x3a2d4284	0.0006609338
59	0x3b19745c	0.0023415303
60	0x3942b0c1	0.00018567128
61	0x3cb63659	0.022242712
62	0x3d48835f	0.04895341
63	0x392509b9	0.00015739248
64	0x3dd47eb3	0.103757285
65	0x3d942288	0.07233149
66	0xb98352cf	-0.00025047964
67	0x3dc1f944	0.09471372
68	0xbd3421db	-0.0439776
69	0x3ca58b56	0.020208042
70	0x390bfe94	0.00013350911
71	0x3d8cabcf	0.068687074
72	0xbd7f576b	-0.062339228
73	0xbdb6ff9e	-0.08935474
74	0xb7a139ea	-1.9219664e-05
75	0x3c5e1fa4	0.013557348
76	0xbcf88b0c	-0.03033974
77	0xbe14da40	-0.14536381
78	0x3d875255	0.066075005
79	0x3bc9538c	0.0061439928
80	0x3df6802c	0.120361656
81	0xbcb97362	-0.022638027
82	0x3dbea2e6	0.09308414
83	0xbca947bb	-0.020664087
84	0x3db7d60e	0.089763746
85	0xb7fe6c9c	-3.0329735e-05
86	0xbd141c4a	-0.03615979
87	0x3d973071	0.07382286
88	0xbd427ad1	-0.047480408
89	0x3d0dc3ed	0.034610678
90	0x3d8b11b5	0.06790487
91	0xbc51369c	-0.012769368
92	0x39301c8a	0.000167953
93	0x3cea6fc8	0.028617755
94	0x3dd22d52	0.102625504
95	0x3c241d74	0.010016788
96	0xbd203a18	-0.039117903
97	0x39d9cada	0.00041540602
98	0x3d3e11e5	0.046403784
99	0xbdb5242d	-0.088447906
100	0x3aa2f1b6	0.0012431655
101	0xbc5ea32c	-0.013588708
102	0xbd102657	-0.035192814
103	0xbcb364be	-0.021898624
104	0x3d11ba10	0.035577834
105	0x3d984c26	0.07436399
106	0xb923401e	-0.00015568777
107	0x3d154f00	0.036452293
108	0x398712b4	0.00025763141
109	0xbd60d7c4	-0.05489327
110	0x3c5d3d4e	0.013503386
111	0xbc91cc13	-0.017797505
112	0xba348466	-0.0006886184
113	0x3d23ece0	0.040020823
114	0xb6d7f97a	-6.436542e-06
115	0xbd242fb5	-0.04008456
116	0x3d24374d	0.0400918
117	0x3d1ef828	0.03881088
118	0xbd27721f	-0.04088032
119	0x3cb97806	0.02264024
120	0x3dd38cbd	0.10329578
121	0xbb2226fa	-0.002474247
122	0x38d84952	0.000103133396
123	0xbabdd83e	-0.0014484001
124	0x38bf5ce4	9.124892e-05
125	0xbd491f6e	-0.04910224
126	0xbb6b9649	-0.0035947731
127	0x38d78332	0.00010276436
128	0x3dc57ba3	0.096427225
129	0xbd39eb18	-0.04539022
130	0xbf838778	-1.0275717
131	0xbd8e0f02	-0.06936456
132	0xbd00dce2	-0.03146065
133	0x3db732dc	0.089452475
134	0x3f4ec2b9	0.80765873
135	0xbd97dede	-0.074155554
136	0x3dea01df	0.11426138
137	0xbe1349fc	-0.14383692
138	0xbe209bd0	-0.15684438
139	0x3dfa6d0e	0.12227832
140	0xbc710712	-0.014711158
141	0xbd15285b	-0.03641544
142	0xbda32cf6	-0.0796756
143	0xbcc3589c	-0.023845963
144	0x3e45364f	0.19258998
145	0x3c0f2981	0.008737923
146	0x3db8a8b2	0.09016551
147	0xbd438b16	-0.047740065
148	0x3de4bdcd	0.11169014
149	0xbfa0470a	-1.2521679
150	0xbd92710d	-0.07150469
151	0x3aa01c60	0.0012215488
152	0x3da18176	0.07886021
153	0x3f03d108	0.5149083
154	0xbc870ae5	-0.016484687
155	0x3c9f2176	0.019425135
156	0xbf9fae32	-1.2475035
157	0x3d88daea	0.066823795
158	0x3cad1521	0.02112824
159	0x3e0d38d7	0.13791214
160	0x3d94e31c	0.0726988
161	0x3f807dce	1.0038393
162	0xbe35f9c4	-0.1777106
163	0x3d2a9f9a	0.041656114
164	0x3f3ca12d	0.73683435
165	0x3dca81c1	0.0988803
166	0x3ccee33b	0.025254836
167	0x3e4cd447	0.20002852
168	0x3d9eeb6e	0.077597484
169	0x3d605014	0.05476387
170	0x3ecced04	0.4002458
171	0x3d1ace9a	0.037794687
172	0x3f9eda85	1.2410437
173	0x3c06c10b	0.008224736
174	0xb90e12fc	-0.00013549248
175	0x3e6750ba	0.22589388
176	0x4030ed6d	2.7644913
177	0xbdacb820	-0.084335566
178	0xbed6e517	-0.41971657
179	0x3c02dde4	0.007987473
180	0x3cb07e85	0.021544704
181	0x3e056557	0.1302694
182	0xbd05cde2	-0.03266705
183	0x3cb0df37	0.021590812
184	0x3d97f4bf	0.074197285
185	0x3d34357b	0.043996315
186	0x3fcba971	1.5911084
187	0x3d4fffe8	0.05078116
188	0x3e8bb98e	0.27290004
189	0x3c54011f	0.01293972
190	0x3d4d2e4d	0.050092984
191	0x3ee43f3d	0.44579497
192	0x3c3d74b4	0.011563469
193	0xbddfded5	-0.10931174
194	0x39c0cc1b	0.00036773164
195	0xbc2b2f42	-0.010448279
196	0xbdd97470	-0.10617912
197	0xbe004a5c	-0.12528366
198	0xb9e29380	-0.00043215975
199	0x3d7e1c5f	0.062038776
200	0xbd8ccfba	-0.06875558
201	0xbb832616	-0.004002343
202	0xb9a64ca7	-0.00031719098
203	0x3d07aaed	0.033121992
204	0x3cd4c693	0.025973594
205	0xbd56a16a	-0.05240003
206	0xbd1c3355	-0.03813489
207	0xbdebd0d4	-0.1151444
208	0x3b7a4e17	0.0038193518
209	0x3d10dd5a	0.035367347
210	0x3dc8826f	0.09790503
211	0xbdac5023	-0.08413722
212	0xbcac063b	-0.020999065
213	0xb8714f35	-5.7532645e-05
214	0x3d40380f	0.04692846
215	0xbc2626c9	-0.010141083
216	0x3e11a008	0.14221203
217	0x3d76629f	0.060152646
218	0xbc61526d	-0.013752562
219	0xbd2a216c	-0.04153578
220	0x38697042	5.5656077e-05
221	0xbd10b6fa	-0.03533075
222	0x3d7fc822	0.06244672
223	0x3dbcd5f5	0.092204966
224	0xbda45347	-0.080236964
225	0x3a169c3f	0.00057453284
226	0x3d8d2191	0.06891168
227	0x3d99f091	0.075165875
228	0xb9c6ac65	-0.00037893947
229	0xbd54392e	-0.051812343
230	0xbc7482d3	-0.014923769
231	0xbbbc07f6	-0.0057382537
232	0xbdbc6ca4	-0.09200409
233	0x3d91fcdb	0.071283065
234	0xba070031	-0.000514987
235	0xbe0d45a1	-0.13796093
236	0xb837f1cb	-4.3855787e-05
237	0x3d8085d9	0.062755294
238	0x3d9a71b6	0.0754122
239	0xbd3789bd	-0.04480909
240	0xba5d8623	-0.0008450469
241	0x3d12ef23	0.03587259
242	0xb802c209	-3.1175125e-05
243	0xbd99e59f	-0.075145
244	0x3c340a2a	0.010988751
245	0xbd095be1	-0.03353489
246	0x3a6594d6	0.0008757835
247	0xbc922461	-0.017839612
248	0x3d1d0782	0.038337238
249	0xbc55278b	-0.013009916
250	0xb8fe534a	-0.000121271776
251	0xbc909818	-0.017650649
252	0x398d0721	0.00026898927
253	0xbce352d0	-0.027749449
254	0x3cd8d673	0.026469445
255	0x3a801da7	0.0009774462

encoder.linear_sigma.bias f4 [16]
0	0x3904d777	0.00012668768
1	0x36d57604	6.3616335e-06
2	0xc02dca67	-2.7154787
3	0xb8e57c33	-0.00010942705
4	0xb9a8acc6	-0.00032172183
5	0xc0324975	-2.7857335
6	0x38e706df	0.00011016218
7	0xb7a91183	-2.0154524e-05
8	0xb9715fc0	-0.0002301922
9	0xb7cd568f	-2.4478211e-05
10	0x392488f8	0.00015691284
11	0x384177bd	4.61263e-05
12	0xb92efb39	-0.00016687521
13	0x38014299	3.081802e-05
14	0xb9c9e9d7	-0.00038511932
15	0xb9aed00e	-0.0003334288

decoder.Linear1.weight f4 [64, 16]
0	0x3a98d770	0.0011660885
1	0xbb479f03	-0.0030459769
2	0x3cc96a46	0.024586808
3	0x3ab974da	0.0014149204
4	0xbabca75e	-0.0014393141
5	0xc0b110b4	-5.533289
6	0xbab2febb	-0.0013656238
7	0xb98bcba0	-0.00026663858
8	0xb9fe1f48	-0.00048469962
9	0xbb2647cb	-0.0025372382
10	0xbb445cbc	-0.00299625
11	0xbb4bad07	-0.0031078474
12	0x3ac711ec	0.0015187836
13	0x3a8df609	0.001083077
14	0xbab8ff10	-0.00141141
15	0xba22281e	-0.00061857875
16	0x3daca4c6	0.084298655
17	0xbd1547c1	-0.036445383
18	0xbcd29ceb	-0.02570959
19	0xbd12752a	-0.035756268
20	0x3c11f0ae	0.00890748
21	0x3e45fb9f	0.19334267
22	0xbd9a0199	-0.07519836
23	0xbda6b5d3	-0.08140149
24	0x3d389b63	0.045070063
25	0x3c847e53	0.016173517
26	0xbc4786d6	-0.0121781435
27	0xbca887ab	-0.020572504
28	0x3c82c145	0.015961299
29	0xbd522574	-0.05130525
30	0xbcb6e9e2	-0.02232832
31	0x3d0afb81	0.03393126
32	0x3d80a342	0.06281139
33	0x3d6b2260	0.05740583
34	0xbce7fae1	-0.02831787
35	0x3d4cd6f1	0.05000967
36	0xbd1ec0b1	-0.038757984
37	0xbe17fd7f	-0.14842795
38	0xbd01dae6	-0.0317029
39	0xbc55e931	-0.013056085
40	0x3d5f9861	0.05458868
41	0xbbdf474a	-0.0068139182
42	0xbca534f1	-0.020166846
43	0xbcfef913	-0.031124627
44	0xbca98b73	-0.020696377
45	0x3c1aa026	0.009437596
46	0x3cd40e87	0.025885833
47	0x3c631745	0.013860528
48	0x3d572084	0.052521244
49	0xbd4c2292	-0.049837656
50	0xbd975af1	-0.073903926
51	0x3d305002	0.04304505
52	0x3d81d75a	0.06339903
53	0xbdd31f2b	-0.10308679
54	0xbcaac985	-0.020848045
55	0xbcd0439f	-0.02542287
56	0x3d29b7c9	0.041435037
57	0xbce276a6	-0.027644467
58	0x3c599500	0.013280153
59	0x3ba25c7e	0.0049548736
60	0x3bac3ea7	0.005256492
61	0x39a3866a	0.0003118993
62	0x3d143efc	0.03619288
63	0xbc86a0c0	-0.016434073
64	0xbb069225	-0.0020533886
65	0x36dbd05c	6.550965e-06
66	0x3eb9fa6c	0.3632387
67	0xbafc38de	-0.0019243022
68	0x3aa73386	0.0012756444
69	0x403d2d1e	2.9558787
70	0x3afafc05	0.0019148594
71	0x3a923fa9	0.0011157888
72	0xbae53a51	-0.0017488693
73	0x3b03eb35	0.0020129208
74	0x3b2def42	0.0026540314
75	0x3a64a6d0	0.0008722367
76	0xbb2370ea	-0.0024939128
77	0xba6262b1	-0.0008635922
78	0xba700662	-0.00091562246
79	0xb81dbca0	-3.7607388e-05
80	0x3d1c79c7	0.038202073
81	0xbcb512bf	-0.022103665
82	0xbc9bb759	-0.019008325
83	0xbc473da2	-0.0121606905
84	0xbd1598d3	-0.036522698
85	0xbd671130	-0.056412876
86	0xbd025731	-0.031821433
87	0x3cdd04de	0.02697986
88	0x3cfca4ab	0.030840239
89	0x3cc35de4	0.023848481
90	0x3c3fb4c3	0.011700812
91	0xbce46fd0	-0.027885348
92	0x3d1df112	0.03855998
93	0x3d7b0035	0.061279494
94	0xbd454b84	-0.04816772
95	0xbcb31d02	-0.021864418
96	0x3abed86f	0.0014560352
97	0x3affe910	0.0019524414
98	0xbd10ce07	-0.035352733
99	0x3bca8835	0.006180788
100	0x3b123ec7	0.002231525
101	0xc0204e17	-2.5047662
102	0xbb0795ac	-0.0020688577
103	0xbb3c55c0	-0.0028737634
104	0xbb11b3e9	-0.002223248
105	0xbab6e92f	-0.0013954992
106	0x396dd700	0.00022682175
107	0xbaaaca37	-0.0013030235
108	0xba919876	-0.0011108059
109	0x3b3f6b9a	0.0029208423
110	0x3b7c18a8	0.0038466845
111	0x3b131bb5	0.0022446935
112	0xbd534139	-0.051575873
113	0x3c25a3da	0.010109866
114	0x3c57169c	0.013127949
115	0xbd0dac11	-0.034587923
116	0xbbbb7a2b	-0.0057213507
117	0xbd241567	-0.040059473
118	0xbc3668be	-0.011133371
119	0x3d758a48	0.05994633
120	0x3c93aa3e	0.018025514
121	0xbbec09bd	-0.0072033093
122	0xbb9c9af7	-0.0047792154
123	0xbd687ebd	-0.056761492
124	0x3c3a1344	0.011357132
125	0x3c3beba9	0.01146976
126	0x3a39215d	0.00070621615
127	0x3c59565a	0.013265217
128	0x3d703787	0.058646705
129	0xbc094384	-0.008377913
130	0xbd99c313	-0.075079106
131	0x3d37d219	0.0448781
132	0x3d2d3647	0.04228809
133	0xbdfceeb0	-0.123502135
134	0x3cd0a351	0.0254685
135	0x3d36b9c4	0.044610754
136	0xbc4bd6e2	-0.012441369
137	0xbbf00861	-0.0073252176
138	0x3c946442	0.018114213
139	0xbb7dd557	-0.0038731897
140	0xbd313d80	-0.04327154
141	0xbd7fae24	-0.062421933
142	0xbc02d554	-0.007985432
143	0xbcbe3394	-0.023217954
144	0x3bc4915c	0.0059987735
145	0x3b9a3641	0.0047061746
146	0xbf318279	-0.6933971
147	0xbb754d6d	-0.0037430183
148	0xba84c5d5	-0.0010129759
149	0xc0374c8a	-2.8640466
150	0xbac1d2d0	-0.0014787558
151	0xbc0770da	-0.008266652
152	0xbb2bcfe5	-0.0026216444
153	0x3b698630	0.003563296
154	0xba41e123	-0.00073959137
155	0x3ba43b19	0.005011928
156	0x3b18bbbb	0.0023305255
157	0xb9259ce2	-0.0001579407
158	0x3b931b01	0.004489303
159	0xba91ccac	-0.0011123619
160	0xbd1a44d5	-0.0376633
161	0xbba6a9d3	-0.0050861626
162	0x3dbb9415	0.09159104
163	0x3ae3deaf	0.001738509
164	0xbc7c20ad	-0.01538865
165	0xbe50d4e7	-0.20393716
166	0x3aa01748	0.001221397
167	0xbb67d672	-0.0035375622
168	0x3c145998	0.009054564
169	0xbd0185c0	-0.031621695
170	0x3d50818d	0.0509048
171	0xbd1138e3	-0.035454642
172	0x3c20f5ce	0.009824229
173	0xbd28088f	-0.041023787
174	0xbba7f407	-0.005125526
175	0xb9b6d762	-0.00034874218
176	0xb94be65a	-0.00019445401
177	0x3b58af0e	0.0033063325
178	0x40074cf3	2.1140716
179	0xbb9a2d83	-0.0047051325
180	0x3b9c5478	0.0047708116
181	0xbf2d06a1	-0.6758824
182	0xbb70e596	-0.0036757938
183	0x3aff27e6	0.0019466847
184	0xbb47c4cf	-0.0030482297
185	0xbbf64cc1	-0.007516474
186	0x3b3a4f1a	0.0028428496
187	0x3aa56400	0.0012618303
188	0xba4af666	-0.00077424047
189	0xbbb62cc9	-0.005559538
190	0x3a99f072	0.0011744632
191	0x3ba3e494	0.005001614
192	0xbc4290c9	-0.01187534
193	0xbcb90e95	-0.022589961
194	0x3c74eedb	0.014949526
195	0xbcc4adae	-0.024008598
196	0xbb1686bd	-0.0022968494
197	0xbce928a0	-0.028461754
198	0xba0a2d06	-0.0005270991
199	0xbc6bb100	-0.014385462
200	0xbcc17c58	-0.023618862
201	0x3b21d72d	0.0024694905
202	0xbc86ac7a	-0.016439665
203	0x3c88cea7	0.016700102
204	0x3bfab720	0.0076512247
205	0x3ce5a952	0.02803484
206	0x3c6d4a48	0.014483042
207	0x3c899ded	0.016798938
208	0x3b8471d3	0.004041889
209	0xbb88fe29	-0.004180689
210	0x3eba5ebd	0.36400405
211	0xbb1d5db3	-0.0024012148
212	0x3a43176b	0.0007442149
213	0x4013402f	2.3007925
214	0xbb8f8103	-0.004379393
215	0x3b99632c	0.0046810117
216	0x3b7548d0	0.0037427433
217	0x3b4d4e82	0.0031327312
218	0x3bb2051c	0.005432738
219	0xbba869b5	-0.0051395544
220	0xbb02b395	-0.0019943465
221	0x3b842b1b	0.004033459
222	0xb91fc547	-0.00015236913
223	0x3b3ddbac	0.0028970046
224	0x3cd1557d	0.02555346
225	0xbc465683	-0.012105587
226	0x3d767a2c	0.060175106
227	0x3c0ed3a7	0.008717454
228	0xbcb21d3d	-0.021742458
229	0x3da63a98	0.081166446
230	0xbdbd1b75	-0.09233753
231	0x3bcaee84	0.006192984
232	0x3d57513b	0.0525677
233	0xbd81ac5a	-0.063317016
234	0x3ce75f39	0.028243648
235	0xbd1f1e55	-0.038847286
236	0xbcc5e41c	-0.024156623
237	0x3d415045	0.04719569
238	0xbcfc04a8	-0.030763939
239	0x3c108ed0	0.008823112
240	0x3b06608d	0.0020504326
241	0xb9a3953d	-0.00031200974
242	0x3fc26246	1.5186241
243	0xbb61c8b8	-0.0034451913
244	0x3b6b8d33	0.0035942316
245	0x3ff60fab	1.9223531
246	0x3af56842	0.0018723088
247	0xbb67ecc2	-0.0035388921
248	0x3b169044	0.0022974173
249	0xbb48ab2a	-0.00306196
250	0xbb691f2d	-0.003557156
251	0x3a82a742	0.000996806
252	0xbb317979	-0.002708046
253	0xba557157	-0.0008142194
254	0x3888412f	6.497127e-05
255	0xb96a9151	-0.00022370114

decoder.Linear1.bias f4 [64]
0	0x3ff9c68e	1.9513719
1	0xbfb1f97b	-1.390426
2	0xbf8d8d82	-1.105881
3	0xbf918256	-1.13679
4	0xc04ce156	-3.2012534
5	0xbf4e3ff5	-0.8056634
6	0x3eb29e41	0.34886363
7	0xbf4222b5	-0.7583421
8	0xbf8e86a9	-1.1134845
9	0xc074dddb	-3.826041
10	0xbfac4516	-1.3458583
11	0xc046b4bb	-3.104781
12	0xbee0d28e	-0.4391064
13	0xc0a14a37	-5.0403094
14	0xbf93af3f	-1.1537856
15	0xc05980fa	-3.398497
16	0xc09c01b5	-4.8752084
17	0xbf9c196b	-1.2195257
18	0xbfc88b54	-1.566752
19	0xbf95214c	-1.1650786
20	0xc0ba4be9	-5.8217664
21	0xc06b41fc	-3.6759024
22	0xbf2c6db7	-0.6735491
23	0xbfbc0c96	-1.4691341
24	0xbfb3ee26	-1.4057052
25	0xbf8e4631	-1.1115171
26	0xc06cc094	-3.699254
27	0xbf40a1d1	-0.7524691
28	0xc06a2a88	-3.658846
29	0xbf982831	-1.1887265
30	0xbf404aab	-0.75113934
31	0xbf3de65b	-0.7417962
32	0xc0948659	-4.6414
33	0xbf5bdbbd	-0.8588217
34	0xbf65a3fb	-0.8970334
35	0xbfd1b609	-1.6383678
36	0xbf833a5c	-1.0252185
37	0xbf0eae14	-0.5573437
38	0x3f4b1eae	0.7934369
39	0xbf3eee28	-0.7458215
40	0xbfe783ab	-1.8087057
41	0xbfd4c5e2	-1.6622889
42	0xc095477c	-4.664976
43	0xbf3f9410	-0.748353
44	0xc0686675	-3.6312535
45	0xbf768b58	-0.9630637
46	0xbf858e8c	-1.0434127
47	0xc04efeaf	-3.2342947
48	0xbf8a41f4	-1.0801377
49	0xbfb67e14	-1.4257226
50	0xbf404283	-0.7510149
51	0xbfd7db38	-1.6863775
52	0x3e42d407	0.19026195
53	0xbf198426	-0.5996727
54	0xc09c5e44	-4.886507
55	0xbf90625e	-1.1280019
56	0xc08f833e	-4.484771
57	0xbf64f983	-0.89443225
58	0xbf462c62	-0.7741147
59	0xbf069a9b	-0.5257966
60	0xbfae129f	-1.3599433
61	0xc07e218e	-3.970798
62	0xbf9d553e	-1.2291639
63	0xc09ae223	-4.8401046

decoder.Linear2.weight f4 [64, 64]
0	0xbd539ac6	-0.051661275
1	0x3d7bb1cd	0.06144886
2	0xbd7951b9	-0.060868952
3	0x3d1b663c	0.037939295
4	0xb89522b1	-7.1113354e-05
5	0x3c8e1f68	0.01734896
6	0xbe2c3aba	-0.16819277
7	0x3d43373d	0.0476601
8	0xbe11bf67	-0.1423317
9	0xbdae561f	-0.0851252
10	0x3d2db8b7	0.042412486
11	0xbdfb7cf9	-0.12279696
12	0xbe1d7ef0	-0.15380454
13	0xbd319199	-0.043351743
14	0xbd98139e	-0.07425617
15	0xbcd5a86a	-0.026081283
16	0xbcc34e54	-0.02384106
17	0xbe6afa97	-0.22947155
18	0xbe624b8d	-0.22099133
19	0x3cbe9ab8	0.023267135
20	0xbd0f3559	-0.034962986
21	0xbdeb7130	-0.11496198
22	0xbc968860	-0.018375576
23	0x3daeda7e	0.08537768
24	0xbcdbae99	-0.026816653
25	0xbdd633ac	-0.104590744
26	0xbc20d3f4	-0.009816159
27	0xbcde8361	-0.027162256
28	0x3d326e42	0.04356218
29	0x3cd39d6f	0.025831906
30	0xbdda812b	-0.10669168
31	0x3d9acfec	0.07559189
32	0x3ca090f2	0.019600365
33	0x3c4f259e	0.012643246
34	0xbe394c35	-0.18095477
35	0xbd774b12	-0.060374327
36	0xbe1a0246	-0.1503993
37	0x3beacfb7	0.007165875
38	0xbd9f6b7c	-0.07784173
39	0xbd03361d	-0.03203403
40	0xbe41a653	-0.18911104
41	0x3d8073e0	0.062721014
42	0xbd88fd6b	-0.06688961
43	0x3d9c0773	0.07618608
44	0xbe319c27	-0.17344724
45	0xbdb0baf7	-0.08629411
46	0x3d65f608	0.056142837
47	0xbd892914	-0.06697288
48	0x3deed2b6	0.11661284
49	0x3cc63a66	0.024197768
50	0x3c3ec1ae	0.0116428565
51	0x3ced4e15	0.028967896
52	0xba6664be	-0.00087888155
53	0xbd1abbe8	-0.037776858
54	0xbe121a3b	-0.14267819
55	0xbdafb7c2	-0.08579971
56	0xbd76752d	-0.06017034
57	0xbdb01db7	-0.08599418
58	0xbdfe930d	-0.124303915
59	0x3c7babee	0.015360815
60	0xbe0233a3	-0.1271501
61	0x3cde7521	0.02715546
62	0x39762aed	0.0002347638
63	0xbcf1feed	-0.029540503
64	0xbd551881	-0.052025322
65	0xbcc79707	-0.024364008
66	0xbd313b39	-0.04326937
67	0xbd1d3566	-0.038381003
68	0xbda54754	-0.080702454
69	0xbdf1b2cf	-0.11801683
70	0xbdc6491a	-0.09681912
71	0x3b7693f5	0.003762481
72	0xbd8b28db	-0.06794902
73	0x3b581ad2	0.003297497
74	0xbdbdc7d9	-0.092666335
75	0xbd3b0dc3	-0.04566742
76	0xbddf3270	-0.10898292
77	0xbbba10f2	-0.0056782896
78	0xbd826add	-0.06368039
79	0xbddaca20	-0.106830835
80	0xbdbffd52	-0.09374489
81	0xbe0adaf3	-0.13560085
82	0xbd68b18e	-0.056809954
83	0x3be1830c	0.006882077
84	0xbcb5be28	-0.0221854
85	0xbda8c6df	-0.08241057
86	0xbdaf4dbc	-0.085597485
87	0x3d89b884	0.06724647
88	0xbe0ebf04	-0.13940054
89	0xbde27e8d	-0.11059294
90	0xbd154a38	-0.036447734
91	0xbda406b2	-0.080090895
92	0xbc3215c5	-0.010869448
93	0xbe046a39	-0.12931146
94	0xbe098d9a	-0.13432923
95	0xbe23b19e	-0.15985724
96	0x3d4d6920	0.050149083
97	0xbd6c34fa	-0.05766771
98	0xbcbf57bb	-0.023357263
99	0xbd8b237c	-0.067938775
100	0xbdd1adec	-0.10238251
101	0x3d7b2f6b	0.06132452
102	0xbcc0a9c0	-0.023518443
103	0xbd0c7766	-0.034293555
104	0xbe834e4e	-0.2564568
105	0x3d1e7c63	0.038692843
106	0xbce4d806	-0.02793504
107	0x3d67c789	0.056586776
108	0xbd6349c1	-0.05549026
109	0xbd1821ac	-0.037141487
110	0xbd08c00f	-0.033386286
111	0x3dcd9af9	0.10039324
112	0xbe3f6e17	-0.1869434
113	0x3ca8b853	0.020595705
114	0xbe2378aa	-0.15963998
115	0x3e0d8666	0.138208
116	0xbd2c6936	-0.042092524
117	0xbe27eb75	-0.16398413
118	0x3daf5e98	0.08562964
119	0x3c176cf4	0.009242285
120	0x3dbd2af3	0.092367075
121	0xbdb20da6	-0.086940095
122	0x3d0147c1	0.03156257
123	0xbc73361c	-0.014844444
124	0x3c0997b7	0.008397988
125	0xbe13b7b2	-0.14425543
126	0xbcbda759	-0.023151087
127	0x3deba703	0.11506464
128	0xbd9f89cb	-0.07789954
129	0xbdab5c35	-0.083671965
130	0xbe3ebb1d	-0.18626066
131	0xbda238a8	-0.079209626
132	0xbe07b2a9	-0.13251747
133	0xbe2c4408	-0.16822827
134	0xbe0828ec	-0.1329686
135	0x3d77545d	0.06038319
136	0xbd93972c	-0.07206568
137	0xbd554b37	-0.052073684
138	0xbdd1e836	-0.10249369
139	0xbc3f62e4	-0.011681292
140	0xbba04150	-0.0048905984
141	0xbce0603a	-0.027389634
142	0x3d2410bd	0.040055025
143	0xbd0c1de2	-0.034208186
144	0x3d7c5630	0.061605632
145	0xbd39713c	-0.045274004
146	0x3b1c194d	0.0023818791
147	0x3dcac4da	0.09900828
148	0xbd91e18b	-0.07123097
149	0xbcbdcb36	-0.023168188
150	0xbbfefec7	-0.0077818367
151	0x3d09eadc	0.033671245
152	0xbd1155db	-0.03548227
153	0x3d0b8759	0.034064624
154	0xbcdacaad	-0.026707971
155	0xbe0a1c81	-0.13487436
156	0x3d0c6ec2	0.034285314
157	0xbe08e449	-0.13368334
158	0xbd07558d	-0.033040572
159	0xbd99c567	-0.07508355
160	0xbd5eda21	-0.054407243
161	0xbe23926d	-0.15973826
162	0x3c5475c2	0.012967529
163	0xbe1d2296	-0.15345225
164	0x3baf7745	0.005354794
165	0x3d8d9a10	0.06914151
166	0xbcd6c04d	-0.026214743
167	0xbe37a0b9	-0.17932405
168	0xbd137e24	-0.03600897
169	0xbe18b72d	-0.14913626
170	0xbce81ea6	-0.028334927
171	0xbdb3b859	-0.08775396
172	0xbd8e5948	-0.06950623
173	0x3b4a6e44	0.0030888477
174	0x3d17b52c	0.037038013
175	0xbc6cf280	-0.014462113
176	0xbd00441e	-0.03131496
177	0xbde02a32	-0.10945548
178	0xbe041328	-0.12897933
179	0xbe194301	-0.14966966
180	0xbcece660	-0.028918445
181	0x3d316507	0.043309238
182	0xbc43fa41	-0.011961521
183	0x3c837138	0.016045198
184	0x3dc60521	0.09668947
185	0xbe041646	-0.12899122
186	0xbdb15cd5	-0.086602844
187	0x3d60fa07	0.054925945
188	0xbd89225c	-0.06696007
189	0x3bd4a6aa	0.0064895945
190	0xbdac86e2	-0.08424164
191	0xbd137d00	-0.03600788
192	0xbe21eee4	-0.15813786
193	0x3c41008f	0.011779918
194	0xbd220e15	-0.03956421
195	0xbdde1532	-0.108438864
196	0xbdf54796	-0.119765446
197	0xbdc575fa	-0.09641643
198	0xbe148964	-0.14505535
199	0xbdabf51b	-0.083963595
200	0xbcb23c34	-0.021757223
201	0x3d1b0c9c	0.037853822
202	0xbbb94ff6	-0.005655284
203	0xbd6e17b2	-0.058128066
204	0x3c3f5c96	0.011679789
205	0xbdf4627e	-0.119328484
206	0x3d10b49d	0.035328496
207	0xbe1dcfc2	-0.15411285
208	0xbce825bc	-0.028338306
209	0xbcd7357f	-0.026270626
210	0x3d6ddb59	0.058070514
211	0xbdcca8e4	-0.09993151
212	0x3d1a1f8b	0.037627738
213	0xbdde3edc	-0.10851833
214	0x3c234229	0.009964504
215	0x3cc584de	0.024111208
216	0x3d0b0955	0.033944447
217	0x3dd714e2	0.1050203
218	0xbdec2bc7	-0.11531787
219	0xbdf9ef2f	-0.12203824
220	0x3bee4958	0.007271927
221	0xbd9ad054	-0.07559267
222	0xbdb7e092	-0.0897838
223	0xbdf63f76	-0.12023823
224	0x3d8d5482	0.06900884
225	0xbb9ac5fb	-0.004723308
226	0xbdee8d8f	-0.11648094
227	0xbd62b189	-0.055345092
228	0xbe03b3fe	-0.1286163
229	0x3cf328ca	0.029682536
230	0xbd1dff54	-0.038573578
231	0xbe14c82a	-0.14529482
232	0xbcf83ea8	-0.030303314
233	0xbd1d2939	-0.03836939
234	0x3dc8e719	0.098097034
235	0x3d68b8e9	0.05681697
236	0xbdcf22b1	-0.10114039
237	0x3d4bc543	0.04974867
238	0x3d864e1e	0.065578684
239	0x3c918d68	0.017767623
240	0x3cb48906	0.022037994
241	0xbc196ebf	-0.009364783
242	0xbda0ea42	-0.07857181
243	0x3d8285c9	0.06373174
244	0xbd04f1b7	-0.03245708
245	0x3cd7aa4a	0.026326317
246	0xbda92600	-0.08259201
247	0xbd748a8e	-0.05970245
248	0xbe2bb5db	-0.16768591
249	0xbe051a34	-0.12998277
250	0xbda1034e	-0.078619584
251	0xbc52e3d0	-0.012871698
252	0xbe5e09d2	-0.21683434
253	0x3c678864	0.014131639
254	0x3bbc210d	0.0057412446
255	0x3d104899	0.035225485

decoder.Linear2.bias f4 [64]
0	0xbd80c269	-0.06287081
1	0x3c10e4be	0.008843599
2	0xbe0664b0	-0.13124347
3	0xbe4e732e	-0.20161125
4	0xbeebe765	-0.46074978
5	0xbe3d0b84	-0.18461424
6	0xbe397dd9	-0.18114413
7	0xbe58e868	-0.21182406
8	0xbcaff9ba	-0.021481384
9	0xbd8feef7	-0.07028001
10	0x3cd56621	0.026049675
11	0x3c53814d	0.012909246
12	0xbe84421d	-0.2583169
13	0xbd5dbecc	-0.054137036
14	0xbe4162a4	-0.18885285
15	0x3a4c5afc	0.000779554
16	0x3e6a127c	0.22858614
17	0xbdf4d9a4	-0.11955574
18	0xbfbb50aa	-1.4633992
19	0x3f2cd7c4	0.6751673
20	0xbcb4c77a	-0.022067774
21	0x3f374690	0.71592045
22	0xbe3bcebd	-0.18340583
23	0xbda1b9a5	-0.07896737
24	0xbe3a120d	-0.18170948
25	0x3e0ee0a9	0.13952889
26	0xbdab6b4e	-0.08370076
27	0xbcfc1fe1	-0.03077692
28	0xbddadfd0	-0.1068722
29	0xbca840fd	-0.020538801
30	0xbaa7e08b	-0.0012808008
31	0x3d25bf58	0.040465683
32	0xbda0810f	-0.07837116
33	0x3b8cf5b4	0.004301751
34	0xbded614b	-0.11590823
35	0xbd5ba516	-0.053624235
36	0xbe9ac6ea	-0.30229884
37	0xbe19babd	-0.15012641
38	0xbcb13ada	-0.021634508
39	0xbdf010e4	-0.11721972
40	0xbdf1bdb5	-0.11803762
41	0xbf4e5cb9	-0.80610234
42	0xbd218bcd	-0.039439965
43	0xbe28f87c	-0.1650104
44	0xbe6cca16	-0.23123965
45	0xbbe896bb	-0.0070980466
46	0xbd3b38f6	-0.04570862
47	0x3f9049b8	1.1272497
48	0xbe21c9aa	-0.15799585
49	0xbe82d99d	-0.2555665
50	0xbd8ee917	-0.06978052
51	0xbf0a9650	-0.5413561
52	0x3fcb61ea	1.5889256
53	0xbdf2b9af	-0.118518226
54	0xbf550823	-0.8321554
55	0xbcd099f5	-0.025464037
56	0xbc3118aa	-0.010809103
57	0xbd8c22a8	-0.06842548
58	0xbeef5d1c	-0.46750724
59	0xbd0d5d80	-0.034512997
60	0xbf0fca4f	-0.56168073
61	0x3c8cf14d	0.017204905
62	0xbded5036	-0.11587565
63	0xbdd446fa	-0.103651

decoder.linear_mu.weight f4 [2, 64]
0	0xbbef8ea0	-0.0073107034
1	0x3c3c7f75	0.0115049975
2	0x3d3be0ce	0.045868687
3	0xba71d46e	-0.0009225075
4	0xbda9bba9	-0.082877465
5	0x3d320005	0.04345705
6	0xbbe7f5f1	-0.007078879
7	0xbcabafc1	-0.02095783
8	0x3c8932bd	0.016747827
9	0x3c4834f8	0.01221966
10	0xbd20a404	-0.039218917
11	0x3d346e98	0.044050783
12	0x3ce6ee6d	0.028189862
13	0xbb9b91ea	-0.004747619
14	0xbc894f77	-0.016761525
15	0xbc90a767	-0.017657949
16	0xbd35784b	-0.044304173
17	0xbc882a7f	-0.016621826
18	0x3dafb8bf	0.085801594
19	0x3dcd4b89	0.10024173
20	0xbbc466a2	-0.00599368
21	0x3e171d66	0.14757308
22	0xbce4020a	-0.027833004
23	0x3d025c65	0.031826396
24	0xbb04a536	-0.0020240075
25	0x3cfcabbb	0.030843606
26	0xbde5d9a2	-0.11223151
27	0x3d119a30	0.035547435
28	0xbcb11efe	-0.021621224
29	0xbd1c113d	-0.038102377
30	0x3ceb3efd	0.028716559
31	0xbb0e1337	-0.0021678933
32	0x3d3c0bed	0.04590981
33	0x3db0849f	0.086190455
34	0xbd2fb243	-0.042894613
35	0xbcd7222e	-0.026261415
36	0x3d41188b	0.047142547
37	0xbc52ba40	-0.012861788
38	0x3a2739dc	0.0006379166
39	0x3ca44e71	0.020056935
40	0x3c561f8d	0.013069046
41	0xbdfa8618	-0.122326076
42	0x3d46084e	0.048347764
43	0x3b2d1d19	0.0026415049
44	0x3d2702bf	0.040774103
45	0xbd3cee17	-0.046125498
46	0x3cc18348	0.02362217
47	0xbdf631aa	-0.120211914
48	0xbd17f8c0	-0.03710246
49	0xbb8c32b1	-0.004278504
50	0x3d8dd64e	0.06925641
51	0xbdda5557	-0.106608085
52	0xbcf6100d	-0.03003695
53	0xbbaa7ec7	-0.0052031013
54	0x3e35ec2f	0.17765878
55	0x3c2c29d6	0.010508021
56	0xbb54c44c	-0.0032465635
57	0x3cce200b	0.025161764
58	0x3d874de0	0.0660665
59	0x3c822eb2	0.015891407
60	0xbe96a437	-0.2942216
61	0xbc9cb12d	-0.019127453
62	0x3d7c25c0	0.06155944
63	0x3b800902	0.003907324
64	0x3c9b708a	0.018974561
65	0xbd60dcc0	-0.054898024
66	0x3bfdc02a	0.007743855
67	0x3c8dcde3	0.017310089
68	0x3da42c9f	0.08016323
69	0xbc0bdcd7	-0.008536539
70	0xbb96fb8d	-0.004607624
71	0xbd74e83e	-0.059791796
72	0x3d29a10a	0.041413344
73	0x3b831f49	0.004001532
74	0x3d0e6004	0.034759536
75	0xbd3d46a3	-0.046209943
76	0x3cff0f3c	0.031135194
77	0x3d083626	0.033254765
78	0x3ca76fb3	0.020439005
79	0x3c9e1ef1	0.019301863
80	0x3de97130	0.11398542
81	0xbc8bc2e9	-0.017060714
82	0xbda37c81	-0.079827316
83	0xbe03cf6d	-0.12872095
84	0x3af1ade5	0.0018438665
85	0x3e2a9229	0.16657318
86	0xbcfd700f	-0.030937223
87	0x3cac8479	0.021059262
88	0xbd0b74c6	-0.03404691
89	0x3d25164a	0.04030446
90	0x3d643f0c	0.05572419
91	0x3d028b57	0.031871166
92	0x3d6903ab	0.056888264
93	0xbcdee97d	-0.027210945
94	0xbd0bf7f4	-0.034172013
95	0xbb8eb5eb	-0.0043551824
96	0x3c86e8be	0.016468402
97	0xbd62183b	-0.05519889
98	0xbc55243d	-0.013009128
99	0x3d484221	0.04889119
100	0x3cf8a0bb	0.03035008
101	0x3abbcb01	0.0014327468
102	0x3d768d46	0.060193323
103	0x3c1a71b0	0.009426519
104	0xbce5bac2	-0.028043155
105	0x3dfbfb51	0.12303794
106	0x3b92e2ed	0.004482618
107	0xbcf8b46c	-0.03035947
108	0x3c3d7205	0.011562829
109	0xbd318b60	-0.04334581
110	0x3cfc81a0	0.030823529
111	0xbcf240fe	-0.029572006
112	0xbbaf3ee0	-0.0053480715
113	0xbb63375c	-0.0034670448
114	0x3d0c0315	0.034182627
115	0x3e3ab612	0.18233517
116	0xbe217881	-0.15768625
117	0xbb10486d	-0.0022015825
118	0xbe68ffd4	-0.2275384
119	0xbdc6cf26	-0.09707479
120	0xbd99d892	-0.07512011
121	0xbd7a5d68	-0.061124235
122	0xbeac53da	-0.33657724
123	0x3b6e3ab9	0.003635092
124	0xbd879e9b	-0.066220485
125	0xbd704364	-0.05865802
126	0x3af47e77	0.0018653412
127	0xbb841389	-0.004030649

decoder.linear_mu.bias f4 [2]
0	0xbd49c0fb	-0.049256306
1	0xbd8a3e33	-0.06750145
